…
initializing [Conv2d] ...
initializing [Conv2d] ...
initializing [Conv2d] ...
initializing [Conv2d] ...
initializing [Conv2d] ...
initializing [Conv2d] ...
initializing [Conv2d] ...
initializing [Conv2d] ...
initializing [Conv2d] ...
initializing [Conv2d] ...
initializing [Conv2d] ...
initializing [Conv2d] ...
initializing [Conv2d] ...
initializing [Conv2d] ...
initializing [Conv2d] ...
initializing [Conv2d] ...
initializing [Conv2d] ...
==================================================
===> Network Summary

SRFBN(
  (sub_mean): MeanShift(3, 3, kernel_size=(1, 1), stride=(1, 1))
  (conv_in): Sequential(
    (0): Conv2d(3, 256, kernel_size=(3, 3), stride=(1, 1), padding=(1, 1))
    (1): PReLU(num_parameters=1)
  )
  (feat_in): Sequential(
    (0): Conv2d(256, 64, kernel_size=(1, 1), stride=(1, 1))
    (1): PReLU(num_parameters=1)
  )
  (block): FeedbackBlock(
    (compress_in): Sequential(
      (0): Conv2d(128, 64, kernel_size=(1, 1), stride=(1, 1))
      (1): PReLU(num_parameters=1)
    )
    (convBlocks): ModuleList(
      (0): Sequential(
        (0): Conv2d(64, 64, kernel_size=(3, 3), stride=(1, 1), padding=(1, 1))
        (1): PReLU(num_parameters=1)
      )
      (1): Sequential(
        (0): Conv2d(64, 64, kernel_size=(3, 3), stride=(1, 1), padding=(1, 1))
        (1): PReLU(num_parameters=1)
      )
      (2): Sequential(
        (0): Conv2d(64, 64, kernel_size=(3, 3), stride=(1, 1), padding=(1, 1))
        (1): PReLU(num_parameters=1)
      )
      (3): Sequential(
        (0): Conv2d(64, 64, kernel_size=(3, 3), stride=(1, 1), padding=(1, 1))
        (1): PReLU(num_parameters=1)
      )
      (4): Sequential(
        (0): Conv2d(64, 64, kernel_size=(3, 3), stride=(1, 1), padding=(1, 1))
        (1): PReLU(num_parameters=1)
      )
      (5): Sequential(
        (0): Conv2d(64, 64, kernel_size=(3, 3), stride=(1, 1), padding=(1, 1))
        (1): PReLU(num_parameters=1)
      )
    )
    (diconvBlocks_s): ModuleList(
      (0): Sequential(
        (0): Conv2d(64, 64, kernel_size=(3, 3), stride=(1, 1), padding=(2, 2), dilation=(2, 2))
        (1): PReLU(num_parameters=1)
      )
      (1): Sequential(
        (0): Conv2d(64, 64, kernel_size=(3, 3), stride=(1, 1), padding=(2, 2), dilation=(2, 2))
        (1): PReLU(num_parameters=1)
      )
      (2): Sequential(
        (0): Conv2d(64, 64, kernel_size=(3, 3), stride=(1, 1), padding=(2, 2), dilation=(2, 2))
        (1): PReLU(num_parameters=1)
      )
      (3): Sequential(
        (0): Conv2d(64, 64, kernel_size=(3, 3), stride=(1, 1), padding=(2, 2), dilation=(2, 2))
        (1): PReLU(num_parameters=1)
      )
      (4): Sequential(
        (0): Conv2d(64, 64, kernel_size=(3, 3), stride=(1, 1), padding=(2, 2), dilation=(2, 2))
        (1): PReLU(num_parameters=1)
      )
      (5): Sequential(
        (0): Conv2d(64, 64, kernel_size=(3, 3), stride=(1, 1), padding=(2, 2), dilation=(2, 2))
        (1): PReLU(num_parameters=1)
      )
    )
    (diconvBlocks_l): ModuleList(
      (0): Sequential(
        (0): Conv2d(64, 64, kernel_size=(3, 3), stride=(1, 1), padding=(3, 3), dilation=(3, 3))
        (1): PReLU(num_parameters=1)
      )
      (1): Sequential(
        (0): Conv2d(64, 64, kernel_size=(3, 3), stride=(1, 1), padding=(3, 3), dilation=(3, 3))
        (1): PReLU(num_parameters=1)
      )
      (2): Sequential(
        (0): Conv2d(64, 64, kernel_size=(3, 3), stride=(1, 1), padding=(3, 3), dilation=(3, 3))
        (1): PReLU(num_parameters=1)
      )
      (3): Sequential(
        (0): Conv2d(64, 64, kernel_size=(3, 3), stride=(1, 1), padding=(3, 3), dilation=(3, 3))
        (1): PReLU(num_parameters=1)
      )
      (4): Sequential(
        (0): Conv2d(64, 64, kernel_size=(3, 3), stride=(1, 1), padding=(3, 3), dilation=(3, 3))
        (1): PReLU(num_parameters=1)
      )
      (5): Sequential(
        (0): Conv2d(64, 64, kernel_size=(3, 3), stride=(1, 1), padding=(3, 3), dilation=(3, 3))
        (1): PReLU(num_parameters=1)
      )
    )
    (fusionBlocks): ModuleList(
      (0): Sequential(
        (0): Conv2d(192, 64, kernel_size=(1, 1), stride=(1, 1))
        (1): PReLU(num_parameters=1)
      )
      (1): Sequential(
        (0): Conv2d(192, 64, kernel_size=(1, 1), stride=(1, 1))
        (1): PReLU(num_parameters=1)
      )
      (2): Sequential(
        (0): Conv2d(192, 64, kernel_size=(1, 1), stride=(1, 1))
        (1): PReLU(num_parameters=1)
      )
      (3): Sequential(
        (0): Conv2d(192, 64, kernel_size=(1, 1), stride=(1, 1))
        (1): PReLU(num_parameters=1)
      )
      (4): Sequential(
        (0): Conv2d(192, 64, kernel_size=(1, 1), stride=(1, 1))
        (1): PReLU(num_parameters=1)
      )
      (5): Sequential(
        (0): Conv2d(192, 64, kernel_size=(1, 1), stride=(1, 1))
        (1): PReLU(num_parameters=1)
      )
    )
    (convtranBlocks): ModuleList(
      (0): Sequential(
        (0): Conv2d(128, 64, kernel_size=(1, 1), stride=(1, 1))
        (1): PReLU(num_parameters=1)
      )
      (1): Sequential(
        (0): Conv2d(192, 64, kernel_size=(1, 1), stride=(1, 1))
        (1): PReLU(num_parameters=1)
      )
      (2): Sequential(
        (0): Conv2d(256, 64, kernel_size=(1, 1), stride=(1, 1))
        (1): PReLU(num_parameters=1)
      )
      (3): Sequential(
        (0): Conv2d(320, 64, kernel_size=(1, 1), stride=(1, 1))
        (1): PReLU(num_parameters=1)
      )
      (4): Sequential(
        (0): Conv2d(384, 64, kernel_size=(1, 1), stride=(1, 1))
        (1): PReLU(num_parameters=1)
      )
    )
    (diconvtranBlocks_s): ModuleList(
      (0): Sequential(
        (0): Conv2d(128, 64, kernel_size=(1, 1), stride=(1, 1))
        (1): PReLU(num_parameters=1)
      )
      (1): Sequential(
        (0): Conv2d(192, 64, kernel_size=(1, 1), stride=(1, 1))
        (1): PReLU(num_parameters=1)
      )
      (2): Sequential(
        (0): Conv2d(256, 64, kernel_size=(1, 1), stride=(1, 1))
        (1): PReLU(num_parameters=1)
      )
      (3): Sequential(
        (0): Conv2d(320, 64, kernel_size=(1, 1), stride=(1, 1))
        (1): PReLU(num_parameters=1)
      )
      (4): Sequential(
        (0): Conv2d(384, 64, kernel_size=(1, 1), stride=(1, 1))
        (1): PReLU(num_parameters=1)
      )
    )
    (diconvtranBlocks_l): ModuleList(
      (0): Sequential(
        (0): Conv2d(128, 64, kernel_size=(1, 1), stride=(1, 1))
        (1): PReLU(num_parameters=1)
      )
      (1): Sequential(
        (0): Conv2d(192, 64, kernel_size=(1, 1), stride=(1, 1))
        (1): PReLU(num_parameters=1)
      )
      (2): Sequential(
        (0): Conv2d(256, 64, kernel_size=(1, 1), stride=(1, 1))
        (1): PReLU(num_parameters=1)
      )
      (3): Sequential(
        (0): Conv2d(320, 64, kernel_size=(1, 1), stride=(1, 1))
        (1): PReLU(num_parameters=1)
      )
      (4): Sequential(
        (0): Conv2d(384, 64, kernel_size=(1, 1), stride=(1, 1))
        (1): PReLU(num_parameters=1)
      )
    )
    (compress_out): Sequential(
      (0): Conv2d(384, 64, kernel_size=(1, 1), stride=(1, 1))
      (1): PReLU(num_parameters=1)
    )
  )
  (conv_out): Sequential(
    (0): Conv2d(64, 3, kernel_size=(3, 3), stride=(1, 1), padding=(1, 1))
  )
  (add_mean): MeanShift(3, 3, kernel_size=(1, 1), stride=(1, 1))
)

Network structure: [DataParallel - SRFBN], with parameters: [1,043,846]
==================================================
===> Solver Initialized : [SRSolver] || Use CL : [True] || Use GPU : [True]
optimizer:  Adam (
Parameter Group 0
    amsgrad: False
    betas: (0.9, 0.999)
…
